…
          "execution_count": 19,
          "metadata": {},
          "output_type": "execute_result"
        }
      ],
      "source": [
        "ele = torch.rand(2,3)\n",
        "layer_1 = torch.nn.Linear(3,1)\n",
        "layer_1(ele)\n"
      ]
    },
    {
      "cell_type": "code",
      "execution_count": 39,
      "metadata": {
        "id": "MGrDBR7lokSI"
      },
      "outputs": [
        {
          "data": {
            "text/plain": [
              "BERTClass(\n",
              "  (bert_model): BertModel(\n",
              "    (embeddings): BertEmbeddings(\n",
              "      (word_embeddings): Embedding(30522, 768, padding_idx=0)\n",
              "      (position_embeddings): Embedding(512, 768)\n",
              "      (token_type_embeddings): Embedding(2, 768)\n",
              "      (LayerNorm): LayerNorm((768,), eps=1e-12, elementwise_affine=True)\n",
              "      (dropout): Dropout(p=0.1, inplace=False)\n",
              "    )\n",
              "    (encoder): BertEncoder(\n",
              "      (layer): ModuleList(\n",
              "        (0-11): 12 x BertLayer(\n",
              "          (attention): BertAttention(\n",
              "            (self): BertSelfAttention(\n",
              "              (query): Linear(in_features=768, out_features=768, bias=True)\n",
              "              (key): Linear(in_features=768, out_features=768, bias=True)\n",
              "              (value): Linear(in_features=768, out_features=768, bias=True)\n",
              "              (dropout): Dropout(p=0.1, inplace=False)\n",
              "            )\n",
              "            (output): BertSelfOutput(\n",
              "              (dense): Linear(in_features=768, out_features=768, bias=True)\n",
              "              (LayerNorm): LayerNorm((768,), eps=1e-12, elementwise_affine=True)\n",
              "              (dropout): Dropout(p=0.1, inplace=False)\n",
              "            )\n",
              "          )\n",
              "          (intermediate): BertIntermediate(\n",
              "            (dense): Linear(in_features=768, out_features=3072, bias=True)\n",
              "            (intermediate_act_fn): GELUActivation()\n",
              "          )\n",
              "          (output): BertOutput(\n",
              "            (dense): Linear(in_features=3072, out_features=768, bias=True)\n",
              "            (LayerNorm): LayerNorm((768,), eps=1e-12, elementwise_affine=True)\n",
              "            (dropout): Dropout(p=0.1, inplace=False)\n",
              "          )\n",
              "        )\n",
              "      )\n",
              "    )\n",
              "    (pooler): BertPooler(\n",
              "      (dense): Linear(in_features=768, out_features=768, bias=True)\n",
              "      (activation): Tanh()\n",
              "    )\n",
              "  )\n",
              "  (dropout): Dropout(p=0.3, inplace=False)\n",
              "  (linear): Linear(in_features=768, out_features=27, bias=True)\n",
              "  (act): Softmax(dim=-1)\n",
              ")"
            ]
          },
          "execution_count": 39,
          "metadata": {},
          "output_type": "execute_result"
        }
      ],
      "source": [
        "class BERTClass(torch.nn.Module):\n",
        "    def __init__(self):\n",
        "        super(BERTClass, self).__init__()\n",
…
